model.ckpt (torch_old, 118948 bytes, 14 tensors)

layer1.0.weight f4 [16, 1, 5, 5]
-0.28831625 -0.041632667 -0.162861 -0.030860798 0.014960573 -0.1342548 -0.08417954 -0.12233079
-0.14002961 -0.2380779 0.09902356 -0.068352826 -0.0565599 0.06111176 -0.12959975 0.14251465
0.14920382 -0.04471293 0.032870844 -0.0935217 -0.08612973 -0.120395474 0.16454609 0.088022456
0.19282398 0.1284343 0.13612048 0.058238283 -0.03163217 0.052069396 -0.09179571 -0.11920738
0.15087263 0.0072741853 -0.0026962692 -0.2695528 -0.18337949 -0.062942006 0.15508077 0.11317996
0.044028167 -0.027907444 0.01541366 0.13649027 0.114405006 0.118653476 -0.09624047 0.08303794
-0.2950541 -0.252381 -0.019600539 0.060490508 -0.1253563 0.1471647 -0.1644779 -0.08196444
0.14123088 -0.13510457 -0.14017972 0.066669434 0.124501765 -0.25896147 -0.05252165 0.07158893
-0.029915115 0.25912732 0.2421467 0.015767347 0.03382947 0.089125596 0.003214409 0.16544187
0.015841618 0.15214759 0.011911405 -0.09062888 0.027693823 -0.029760784 -0.04923948 0.054361057
-0.11503928 0.010218528 0.11593389 0.19445598 -0.047801115 -0.1284795 -0.18960455 0.105905384
-0.028328586 0.13671212 -0.036099024 -0.32718724 -0.11753863 0.10270708 0.031598248 0.24297683
-0.007866524 -0.23870817 -0.20424652 -0.080375575 8.857844e-05 0.10996531 0.079746105 0.2003967
0.21680033 0.015189648 0.027159354 -0.106881164 -0.09481734 -0.08560725 -0.1601429 -0.17587745
0.016597478 -0.25505024 -0.17461315 0.07377317 -0.049691997 -0.22478111 0.112052515 -0.074039325
-0.050534617 0.06351743 0.17342035 0.0075219073 0.12135463 0.08151751 -0.17870861 0.11883126
0.094624475 -0.19186245 -0.11127168 0.10323937 0.18198042 -0.12069193 -0.19270514 -0.19829275
0.05663368 0.12537006 0.18654108 -0.20697987 -0.19568533 0.052672114 0.057126127 0.03793869
0.04802695 0.016636552 -0.068446524 0.023823572 0.08038677 -0.13078721 0.06494443 -0.2518412
-0.12657543 0.03788562 0.19077285 -0.16213526 0.023259906 -0.08439027 -0.04472448 0.12443602
-0.04541289 -0.19415572 -0.1101169 0.020768158 0.06540983 0.14069991 -0.15090105 0.09695809
0.016480047 0.11756663 -0.13172978 -0.05682935 -0.117294915 0.1590466 -0.04190953 -0.19590339
-0.034923743 -0.077590756 -0.08551441 -0.0963281 0.104914315 -0.18291014 -0.14531952 -0.08660536
-0.014528712 0.094642274 0.08423329 0.040512167 -0.047761805 0.123499624 0.15285812 0.06287776
-0.006809552 0.09965047 0.030500889 -0.17943926 0.06387526 -0.007679745 0.1585885 -0.076968946
0.09675198 -0.19563293 -0.08430176 -0.1747193 -0.087648116 -0.16561182 -0.025200464 0.101237856
-0.14245318 -0.11474882 0.1411891 -0.20213921 -0.11707648 -0.0150296725 0.1767257 0.12100968
-0.07508097 -0.0031905533 0.09945802 0.15684295 0.21797411 -0.17218034 -0.21752529 0.057789795
-0.035510655 -0.12213284 0.0379242 -0.112198256 0.05204497 0.03853917 -0.15950918 -0.10714688
0.09637412 0.07129979 -0.13887462 -0.12577088 -0.27215618 -0.1213888 -0.059385553 0.1632057
-0.26633984 -0.09935297 0.122448996 0.022468712 0.18694657 -0.023138061 -0.16230981 0.10882331
0.074272916 0.114715576 -0.15298055 0.044837672 0.08184435 0.035195805 0.12013917 0.048200082
00000000: 309e 93be 0487 2abd 09c5 26be c9cf fcbc
00000010: 311d 753c 177a 09be 5366 acbd 9188 fabd
00000020: ec63 0fbe b1ca 73be ddcc ca3d 91fc 8bbd
00000030: 5bab 67bd 5350 7a3d ccb5 04be 5cef 113e
00000040: e3c8 183e e824 37bd 94a3 063d 4e88 bfbd
00000050: c964 b0bd e791 f6bd c57e 283e 1e45 b43d
00000060: a673 453e 4884 033e 2b63 0b3e 448b 6e3d
00000070: bc90 01bd b846 553d 64ff bbbd 0023 f4bd
00000080: 5b7e 1a3e 4a5c ee3b e4b3 30bb d302 8abe
00000090: d5c7 3bbe bde7 80bd 7ecd 1e3e e5ca e73d
000000a0: e156 343d 279e e4bc 9389 7c3c 1bc4 0b3e
000000b0: 2c4d ea3d 9800 f33d b919 c5bd cc0f aa3d
000000c0: 5511 97be 1538 81be 4f91 a0bc e5c4 773d
000000d0: 675d 00be 58b2 163e e56c 28be f9dc a7bd
000000e0: d49e 103e da58 0abe 468b 0fbe fc89 883d
000000f0: c8fa fe3d 9996 84be f120 57bd 389d 923d
00000100: 8b10 f5bc 56ac 843e 4ef5 773e 862a 813c
00000110: c590 0a3d 7b87 b63d d6a8 523b 9869 293e
00000120: 48c6 813c 94cc 1b3e 0e28 433c a29b b9bd
00000130: 28de e23c e3cc f3bc 56af 49bd b3a9 5e3d
00000140: b799 ebbd 9d6b 273c bf6e ed3d 781f 473e
00000150: 1acb 43bd 2190 03be b227 42be ece4 d83d
00000160: 5a11 e8bc 43fe 0b3e 92dc 13bd 1685 a7be
00000170: 18b8 f0bd 1758 d23d 2a6d 013d ebce 783e
00000180: 98e2 00bc ea6f 74be 0026 51be f39b a4bd
00000190: 30c3 b938 7e35 e13d ed51 a33d cb34 4d3e
000001a0: e800 5e3e 00de 783c 4b7d de3c 83e4 dabd
000001b0: 982f c2bd db52 afbd 80fc 23be 3819 34be
000001c0: 6ff7 873c f295 82be cacd 32be 6316 973d
000001d0: d689 4bbd 052d 66be ca7b e53d eea1 97bd
000001e0: 63fd 4ebd 6d15 823d 1b95 313e 557a f63b
000001f0: c788 f83d a7f2 a63d 64ff 36be ce5d f33d
00000200: 7aca c13d 9777 44be 68e2 e3bd 2a6f d33d
00000210: 1359 3a3e 552d f7bd 7f54 45be 410d 4bbe
00000220: b8f8 673d 0261 003e a004 3f3e 88f2 53be
00000230: bc61 48be b7be 573d 16fd 693d 9a65 1b3d
00000240: e8b7 443d 6149 883c b12d 8cbd a729 c33c
00000250: d2a1 a43d 15ed 05be 9601 853d 54f1 80be
00000260: fd9c 01be f42d 1b3d f559 433e c906 26be
00000270: 8f8b be3c ced4 acbd 0431 37bd 50d8 fe3d
00000280: de02 3abd c2d0 46be f884 e1bd fc21 aa3c
00000290: 97f5 853d a313 103e ce85 1abe f791 c63d
000002a0: 2a01 873c c6c6 f03d 2ce4 06be e4c5 68bd
000002b0: 5138 f0bd 1ddd 223e 54a9 2bbd e69a 48be
000002c0: 330c 0fbd e7e7 9ebd 2e22 afbd ab47 c5bd
000002d0: 51dd d63d cc4c 3bbe a4ce 14be 275e b1bd
000002e0: d609 6ebc cfd3 c13d 8182 ac3d 16f0 253d
000002f0: e2a1 43bd 5fed fc3d d786 1c3e 0ec6 803d
00000300: aa22 dfbb 8c15 cc3d 00dd f93c edbe 37be
00000310: 08d1 823d 5fa6 fbbb 0665 223e e5a1 9dbd
00000320: e725 c63d 0054 48be 67a6 acbd 9ee9 32be
00000330: db80 b3bd 2596 29be 3471 cebc cb55 cf3d
00000340: 3fdf 11be 6e01 ebbd e093 103e 95fd 4ebe
00000350: cbc5 efbd 043f 76bc 95f7 343e ecd3 f73d
00000360: 0dc4 99bd 9a18 51bb a5b0 cb3d 709b 203e
00000370: 9b34 5f3e 0b50 30be f3be 5ebe feb4 6c3d
00000380: 9f73 11bd c820 fabd 6856 1b3d 33c8 e5bd
00000390: 1b2d 553d 40db 1d3d 6056 23be d36f dbbd
000003a0: cb5f c53d a005 923d 2635 0ebe 15ca 00be
000003b0: 0e58 8bbe b19a f8bd 443e 73bd 651f 273e
000003c0: b25d 88be 9279 cbbd 8ac6 fa3d 4e10 b83c
000003d0: ec6e 3f3e 088c bdbc 8b34 26be c1de de3d
000003e0: 661c 983d 00f0 ea3d efa6 1cbe b5a7 373d
000003f0: 039e a73d 7a29 103d 860b f63d 736d 453d

layer1.0.bias f4 [16]
0.029395612 -0.18846357 0.13973463 0.13689494 -0.13791242 -0.08378451 -0.09832965 -0.06423028
0.025916293 -0.15604086 0.07086772 -0.20449512 -0.041618664 0.18541005 -0.13187736 0.14895563
00000000: 11cf f03c 98fc 40be 9816 0f3e 302e 0c3e
00000010: ea38 0dbe 3797 abbd 0e61 c9bd 2a8b 83bd
00000020: 684e d43c 2dc9 1fbe 1823 913d 2b67 51be
00000030: 5578 2abd 22dc 3d3e dc0a 07be d387 183e

layer1.1.weight f4 [16]
1.0669727 0.86201364 0.7515184 1.2423072 1.1331941 1.002497 0.9864807 0.8919787
1.0500878 0.9540068 0.87899977 1.2023429 1.0849034 1.0789043 0.86392194 0.8799339
00000000: 9092 883f edac 5c3f 8363 403f ec03 9f3f
00000010: 810c 913f d251 803f 008a 7c3f b758 643f
00000020: 4769 863f ca39 743f 2106 613f 5fe6 993f
00000030: 1dde 8a3f 8919 8a3f fd29 5d3f 5943 613f

layer1.1.bias f4 [16]
-0.24310975 -0.24748398 -0.314979 -0.14023009 -0.13752404 -0.24153712 -0.13631663 -0.01586708
-0.18892246 -0.07683829 -0.2890967 -0.096374966 -0.05040279 -0.16034667 -0.26185197 -0.26284593
00000000: c3f1 78be 716c 7dbe ed44 a1be 7a98 0fbe
00000010: 1ad3 0cbe 8255 77be 9696 0bbe aefb 81bc
00000020: e474 41be 655d 9dbd 7c04 94be 3d60 c5bd
00000030: 2873 4ebd eb31 24be 7611 86be be93 86be

layer1.1.running_mean f4 [16]
-0.093802944 -0.20500693 0.22122993 0.044968706 -0.17036082 -0.1291627 -0.161556 -0.094627395
-0.06462163 -0.24963486 0.116176024 -0.31552622 -0.09368075 0.12647721 -0.10051075 0.12979704
00000000: c21b c0bd 56ed 51be 198a 623e 1b31 383d
00000010: 1173 2ebe 3a43 04be f06e 25be 02cc c1bd
00000020: 5858 84bd 48a0 7fbe b2ed ed3d a78c a1be
00000030: b1db bfbd 3e83 013e 95d8 cdbd 84e9 043e

layer1.1.running_var f4 [16]
0.07812386 0.023522642 0.039269548 0.04332154 0.033154935 0.019437047 0.054895453 0.027067875
0.052139007 0.103025034 0.06475401 0.10503536 0.034841307 0.015338495 0.017717917 0.0097556785
00000000: 67ff 9f3d 8eb2 c03c 1bd9 203d ed71 313d
00000010: 78cd 073d 713a 9f3c 0eda 603d 73bd dd3c
00000020: b68f 553d cafe d23d c09d 843d c71c d73d
00000030: c2b5 0e3d 504e 7b3c 2a25 913c 48d6 1f3c

layer2.0.weight f4 [32, 16, 5, 5]
0.005777982 0.014078489 0.08560824 0.08172854 -0.015927834 -0.008554725 0.007273479 0.04201536
0.0699294 0.04562668 0.046950247 0.049865197 0.038863312 0.051238716 0.0806034 -0.07483102
-0.041441016 0.013825868 0.010166744 -0.056044817 -0.016054893 -0.024638947 -0.0061984286 0.0005536623
0.0043348796 -0.024042057 0.0086028585 -0.07815142 -0.021058267 0.06539756 -0.0011278683 -0.0034138758
-0.026137378 -0.043170854 -0.06444682 -0.06090883 -0.016519668 0.015586666 0.10656063 -0.031571515
-0.04107455 0.0011128297 0.027347257 0.078205675 0.05331549 0.032807074 0.023877596 -0.019114574
-0.011382657 0.07303016 -0.006721526 -0.00014567416 0.05034058 0.0055375486 -0.040370625 -0.02407574
-0.0226004 -0.0042990474 -0.05807979 -0.001140371 0.05267097 0.023720814 0.054242212 -0.06936138
-0.020766245 -0.06255659 0.029332312 -0.028839026 -0.02451145 0.029323228 0.05800911 0.008416962
0.0344477 0.040984582 0.013680313 -0.06357445 -0.06892657 0.0029328025 0.10898149 0.17524473
-0.057977222 -0.15146767 -0.17716214 -0.0155364135 -0.013137942 -0.046950437 0.040418822 0.006008192
0.06626259 -0.10515409 -0.0178964 0.077692464 -0.030644625 -0.05676109 -0.011498026 -0.02270431
-0.013107151 -0.009124521 -0.027964342 -0.0070817964 0.013053274 0.015761979 0.013047225 -0.05407547
-0.020065313 0.0008054335 0.061495453 0.071428776 0.04376428 0.14692755 0.1146441 0.09376529
-0.004159509 0.022292143 -0.050080467 -0.042428076 -0.0626342 -0.06891835 0.042850804 0.03808755
0.024372408 0.060442153 -0.007863731 -0.025433857 -0.03925283 -0.0076332944 -0.013227139 -0.04108762
0.0063958853 -0.058612067 -0.039322186 -0.03869203 -0.019654665 -0.005511712 -0.01470831 -0.08161088
-0.072110884 -0.010627689 0.048119947 -0.011230505 0.01803886 0.052613415 0.047423165 -0.029042711
-0.07984291 -0.037853353 0.019798974 0.08744815 -0.010639385 -0.059901726 0.012527849 -0.079383515
-0.060975324 0.008706027 0.051148556 -0.090066195 -0.08379555 0.021275029 0.026452892 -0.041132048
-0.021932218 -0.049661722 0.012552973 -0.051029004 -0.016099665 -0.082503274 -0.05595082 -0.0067584645
0.019005096 0.041357365 -0.0012640138 0.045147385 -0.031362128 0.02398444 -0.011233111 0.06474555
-0.015345324 0.06457834 0.025059035 0.009728476 0.04125431 0.052081242 0.013431025 0.024689898
-0.019983366 0.070681125 0.025052585 0.015955132 -0.02366859 0.0025386 -0.054426588 0.07991962
0.024920344 0.04103223 0.001396902 0.038491745 -0.04665763 0.014171211 0.03448895 -0.0036419607
-0.007927757 -0.044540145 -0.023276443 0.02602961 0.09129356 0.062124215 0.0017015156 0.074269265
-0.013532726 -0.0984618 0.047938023 -0.040570218 0.014944429 0.013191693 0.07356972 -0.009537716
0.055311617 0.06806785 -0.05210643 -0.013625311 -0.049314126 0.01383597 -0.009766926 0.013987105
0.057403237 0.03671359 -0.039365865 -0.01663083 0.017053029 -0.091086455 -0.026350679 -0.05101027
-0.020169016 0.058525413 -0.046042215 -0.03034394 -0.050791603 -0.011580099 -0.04324721 0.04827209
-0.0352777 -0.07341238 0.0043924097 -0.03201174 0.002879799 -0.05715134 -0.019996004 0.02996996
0.04628188 -0.018656792 -0.01976755 0.014157704 0.012703065 -0.036959127 -0.0035726083 0.024297383
00000000: 3a55 bd3b 76a9 663c 5f53 af3d 4b61 a73d
00000010: 177b 82bc 1e29 0cbc 5d56 ee3b 4c18 2c3d
00000020: 2537 8f3d 0be3 3a3d e74e 403d 733f 4c3d
00000030: 232f 1f3d b0df 513d 6513 a53d 0141 99bd
00000040: 0ebe 29bd e585 623c 6a92 263c 408f 65bd
00000050: 8d85 83bc 9ed7 c9bc 301c cbbb a623 113a
00000060: 9b0b 8e3b d9f3 c4bc 01f3 0c3c da0d a0bd
00000070: 6382 acbc 28ef 853d fbd4 93ba 55bb 5fbb
00000080: 0e1e d6bc ecd3 30bd b2fc 83bd 8a7b 79bd
00000090: 4154 87bc 375f 7f3c 763c da3d 2251 01bd
000000a0: ca3d 28bd 5edc 913a 5b07 e03c 4c2a a03d
000000b0: 5861 5a3d b660 063d f39a c33c 2b96 9cbc
000000c0: 537e 3abc d690 953d 3f40 dcbb 1cc0 18b9
000000d0: ed31 4e3d 5374 b53b ab5b 25bd 7c3a c5bc
000000e0: 7924 b9bc 06df 8cbb 13e5 6dbd 8078 95ba
000000f0: 84bd 573d 2752 c23c 152d 5e3d 570d 8ebd
00000100: f91d aabc ab1d 80bd 514a f03c d23f ecbc
00000110: 3dcc c8bc 4437 f03c f69a 6d3d 4ce7 093c
00000120: 0819 0d3d 73df 273d 6423 603c 5233 82bd
00000130: 6029 8dbd 4334 403b b031 df3d 5b73 333e
00000140: 8679 6dbd 571a 1bbe fe69 35be 718c 7ebc
00000150: 8640 57bc 1a4f 40bd 358e 253d 5ee0 c43b
00000160: aeb4 873d 075b d7bd 799b 92bc 3a1d 9f3d
00000170: 700a fbbc 517e 68bd 3762 3cbc 64fe b9bc
00000180: 60bf 56bc 047f 15bc 7a15 e5bc 6a0e e8bb
00000190: 66dd 553c 441f 813c 07c4 553c 3d7e 5dbd
000001a0: 0360 a4bc ba23 533a a8e2 7b3d 4049 923d
000001b0: 2c42 333d 2d74 163e 87ca ea3d 0408 c03d
000001c0: 7e4c 88bb 039e b63c 2d21 4dbd 10c9 2dbd
000001d0: 5c46 80bd 1025 8dbd 5384 2f3d b101 1c3d
000001e0: a5a8 c73c 3192 773d e1d6 00bc aa5a d0bc
000001f0: 93c7 20bd b720 fabb a4b6 58bc 7e4b 28bd
00000200: 9394 d13b 3513 70bd 4d10 21bd 897b 1ebd
00000210: d202 a1bc 979b b4bb 20fb 70bc 9b23 a7bd
00000220: dfae 93bd c21f 2ebc 6c19 453d 2700 38bc
00000230: 3bc6 933c 2a81 573d cb3e 423d fbea edbc
00000240: ae84 a3bd 1e0c 1bbd 7531 a23c 0418 b33d
00000250: d150 2ebc 835b 75bd 9b41 4d3c d393 a2bd
00000260: 43c1 79bd b9a3 0e3c 2681 513d a074 b8bd
00000270: 009d abbd f848 ae3c bcb3 d83c 147a 28bd
00000280: 32ab b3bc 176a 4bbd fcaa 4d3c ca03 51bd
00000290: 72e3 83bc 7af7 a8bd b02c 65bd 1c76 ddbb
000002a0: 93b0 9b3c 5766 293d 44ad a5ba 77ec 383d
000002b0: 9375 00bd 047b c43c 150b 38bc 5199 843d
000002c0: f46a 7bbc a641 843d 9b48 cd3c 3064 1f3c
000002d0: 48fa 283d 2453 553d cd0d 5c3c 7842 ca3c
000002e0: 28b4 a3bc 44c1 903d 143b cd3c 56b4 823c
000002f0: a1e4 c1bc a45e 263b 6aee 5ebd e6ac a33d
00000300: c025 cc3c 6911 283d 4118 b73a 85a9 1d3d
00000310: 121c 3fbd 5e2e 683c 4944 0d3d f6ad 6ebb
00000320: 6ce3 01bc ba6f 36bd 3dae bebc 0c3c d53c
00000330: 1ef8 ba3d f675 7e3d 6405 df3a 7c1a 983d
00000340: 5eb8 5dbc 57a6 c9bd a95a 443d f52c 26bd
00000350: 7ad9 743c f921 583c b9ab 963d 1544 1cbc
00000360: 6f8e 623d 2867 8b3d 8d6d 55bd b23c 5fbc
00000370: 9cfd 49bd 44b0 623c 7505 20bc 2c2a 653c
00000380: a81f 6b3d fd60 163d 1a3e 21bd 613d 88bc
00000390: cbb2 8b3c 898b babd 61dd d7bc 25f0 50bd
000003a0: 7e39 a5bc 58b8 6f3d c396 3cbd db93 f8bc
000003b0: db0a 50bd 75ba 3dbc fd23 31bd f4b8 453d
000003c0: 597f 10bd 3b59 96bd 34ee 8f3b be1e 03bd
000003d0: 03bb 3c3b 8617 6abd a9ce a3bc 9083 f53c
000003e0: 1292 3d3d 21d6 98bc 8fef a1bc b7f5 673c
000003f0: 8420 503c 7462 17bd 6c22 6abb 4e0b c73c

layer2.0.bias f4 [32]
0.0020826883 -0.04345966 0.00018866119 0.04439661 0.022547543 0.012081484 0.029236061 0.035246603
-0.03858129 0.053938404 -0.045695186 0.046486318 0.0118089905 -0.037091587 -0.048107002 0.05766734
0.028889213 -0.02862602 0.024038566 -0.020964203 -0.005526315 0.017382609 -0.02182825 0.019195957
0.00971823 -0.0053884103 0.008581246 0.020410921 -0.009338114 0.046471976 -0.039705615 0.04445028
00000000: b67d 083b c202 32bd 5ad3 4539 38d9 353d
00000010: a0b5 b83c 6bf1 453c 7780 ef3c be5e 103d
00000020: 6a07 1ebd 84ee 5c3d e02a 3bbd 7068 3e3d
00000030: 7f7a 413c 59ed 17bd d90b 45bd 9734 6c3d
00000040: 12a9 ec3c 1d81 eabc 87ec c43c 1fbd abbc
00000050: 1716 b5bb f965 8e3c 28d1 b2bc d740 9d3c
00000060: 3639 1f3c 4391 b0bb 5b98 0c3c ce34 a73c
00000070: e4fe 18bc 6659 3e3d 5ba2 22bd 7f11 363d

layer2.1.weight f4 [32]
1.0651587 1.1790999 1.1405785 1.1398046 1.1938292 1.1690704 1.0373418 1.1856973
1.0910026 1.0721607 1.1437373 1.1864171 1.0703127 1.0654306 1.1911376 1.207027
1.1496652 1.105573 1.1028595 1.1615272 1.1168609 1.1826324 1.1524928 1.1265774
1.0690401 1.1811178 1.1416075 1.1119801 1.1418968 1.147953 1.173512 1.1259583
00000000: 1f57 883f bfec 963f 7afe 913f 1ee5 913f
00000010: 65cf 983f 19a4 953f 9ec7 843f eec4 973f
00000020: f9a5 8b3f 903c 893f fc65 923f 84dc 973f
00000030: 0200 893f 0860 883f 3277 983f dc7f 9a3f
00000040: 3b28 933f 6b83 8d3f 802a 8d3f ecac 943f
00000050: 4cf5 8e3f 8060 973f e284 933f b033 903f
00000060: 4ed6 883f de2e 973f 3220 923f 5d55 8e3f
00000070: ad29 923f 20f0 923f a435 963f 671f 903f

layer2.1.bias f4 [32]
-0.25697255 -0.24526283 -0.06471772 -0.14029911 -0.23194148 -0.1287031 -0.25478595 -0.05964409
-0.24742605 -0.14208207 -0.088583484 -0.08530679 -0.113169 -0.12572397 -0.18165672 -0.09674689
-0.19536941 -0.13728185 -0.21165104 -0.17427172 -0.1132349 -0.13497834 -0.13791037 -0.14953507
-0.1210518 -0.057771407 -0.077432364 -0.1360951 -0.10675653 -0.037707753 -0.10435679 -0.1315741
00000000: e891 83be 2e26 7bbe b98a 84bd 92aa 0fbe
00000010: 1182 6dbe bfca 03be 4e73 82be 5c4d 74bd
00000020: 415d 7dbe f67d 11be 426b b5bd 54b5 aebd
00000030: 26c5 e7bd c9bd 00be 3804 3abe 3c23 c6bd
00000040: eb0e 48be 9d93 0cbe 0dbb 58be 4974 32be
00000050: b3e7 e7bd c337 0abe 6038 0dbe b91f 19be
00000060: 02ea f7bd b6a1 6cbd dc94 9ebd 845c 0bbe
00000070: 2ba3 dabd 7273 1abd 03b9 d5bd 5cbb 06be

layer2.1.running_mean f4 [32]
0.035006363 -0.43426716 -0.066239685 0.33632344 -0.06478274 -0.62734044 0.012325616 -0.49568263
-0.37922803 0.116594456 0.12187866 0.4796769 -0.46878177 -0.10606578 -0.38079026 0.5974341
0.024804825 -0.07496659 -0.39382565 -0.15444213 0.38124305 -0.15150094 0.5194335 -0.49207982
-0.116179205 1.2694892 0.12818173 0.06738523 0.27858388 0.7587372 -0.596533 0.34533074
00000000: d562 0f3d 4458 debe aca8 87bd 9632 ac3e
00000010: d0ac 84bd 6299 20bf 61f1 493c 1dca fdbe
00000020: 2d2a c2be 13c9 ee3d 859b f93d 3698 f53e
00000030: 2a04 f0be 0439 d9bd f1f6 c2be 71f1 183f
00000040: 7d33 cb3c 1588 99bd 84a3 c9be 1426 1ebe
00000050: 4a32 c33e 1023 1bbe 98f9 043f e3f1 fbbe
00000060: 5def edbd 9f7e a23f 1242 033e 4401 8a3d
00000070: 8ca2 8e3e 9a3c 423f 63b6 18bf 31cf b03e

layer2.1.running_var f4 [32]
0.7232823 0.8791891 1.0187851 0.970711 0.7929159 0.7175984 0.91947687 0.59812963
0.9366349 0.92933637 0.84556144 0.9602285 0.5802157 0.7410319 0.9013592 0.6635034
0.73216355 0.8251004 1.1248164 1.0794498 0.78457683 0.8973629 0.76335686 0.73717695
1.0031682 0.71754247 1.1330374 0.7422263 1.0154667 1.3111686 0.67379576 0.85865325
00000000: 0729 393f 8912 613f 8d67 823f 8480 783f
00000010: 89fc 4a3f 87b4 373f d662 6b3f 061f 193f
00000020: 4ec7 6f3f fde8 6d3f b776 583f 89d1 753f
00000030: 0489 143f 44b4 3d3f 7abf 663f 5cdb 293f
00000040: 126f 3b3f c839 533f fcf9 8f3f 692b 8a3f
00000050: 07da 483f 93b9 653f 5b6b 433f a1b7 3c3f
00000060: d167 803f ddb0 373f 5f07 913f 8b02 3e3f
00000070: d0fa 813f 5fd4 a73f e17d 2c3f b3d0 5b3f

fc.weight f4 [10, 1568]
-0.008218976 0.03350032 -0.047702882 -0.01943172 -0.0029644656 0.022975426 0.026295133 0.058997184
0.012916032 0.02251623 0.0073155183 0.06247305 0.023225062 0.06929198 -0.0033215382 0.016758867
-0.0021954412 0.002015846 -0.06522611 -0.038877238 0.09454877 -0.008204535 -0.024053352 0.038579524
-0.037432753 -0.031039538 -0.08969138 0.0032342449 -0.05400642 -0.18033919 -0.004560449 0.049196504
-0.08792893 -0.0470598 -0.044846218 0.043526042 0.0037640827 0.04387069 0.036451217 -0.009687957
-0.06419797 -0.009604033 -0.04156941 0.015502595 0.12447379 -0.044511434 0.0034470966 0.0036162091
0.049338568 -0.014884522 -0.04356756 0.00043287425 -0.05842367 -0.049971167 -0.03491585 -0.0018976318
-0.00012682995 -0.025069332 -0.048098806 -0.04017617 0.00817923 -0.063031435 0.0008577085 0.0116309095
-0.018705903 -0.011620643 0.05230345 0.08327228 0.030088957 0.06624985 0.029078085 0.030273587
-0.04195116 0.051606283 0.034427784 -0.012674489 0.0032663106 0.037329976 0.0070168325 -0.010268677
0.03258645 0.029333757 -0.09434972 -0.02113624 -0.00874262 0.022286652 0.07270648 0.016388405
-0.03585825 -0.15883197 -0.15357044 0.08597799 0.014381516 0.034682825 -0.044630945 -0.051605783
-0.10135074 -0.007396443 0.04080313 0.0019783815 -0.03370515 -0.07493364 -0.035768747 -0.09789831
-0.026631987 0.018028276 -0.03245847 -0.10849217 0.028035212 -0.089505605 -0.09798776 -0.048214894
-0.018350871 -0.0343222 -0.03130883 0.052077416 0.06645186 -0.011835019 0.04897872 0.030571472
0.023136443 -0.044990353 0.08585747 0.022931393 0.014111552 0.09731242 0.01609669 0.057479344
-0.01490388 0.072796255 -0.03217546 0.05483347 0.052130904 0.017153833 0.018816382 0.061120573
0.017003993 -0.06083044 -0.016916947 -0.018420104 0.025304293 -0.059583675 -0.038912304 -0.14687893
-0.096388035 -0.045293633 -0.038199052 -0.011092369 -0.012020682 -0.05390092 -0.022045745 0.023778118
-0.015945774 0.025153603 -0.036010858 -0.13372399 -0.07371143 0.0089409305 -0.015203367 -0.0703842
-0.04554945 -0.04315892 -0.082851425 0.0066684918 0.08683691 0.043155275 0.017431084 0.01985526
-0.04008045 -0.12170872 -0.06681035 0.053004608 -0.061917994 -0.057111878 -0.043104336 0.0009445696
0.0031604865 -0.086913384 -0.20541297 -0.044316687 -0.01841233 0.016235245 0.010058557 0.0611881
0.030537413 0.0030679523 -0.0045614582 -0.055747606 0.019532127 0.026482107 -0.015099998 0.018950656
-0.009495146 0.01143906 0.05905461 0.0226933 -0.09263886 -0.040730383 -0.03420281 -0.09674926
0.035803378 -0.009553193 0.01818906 0.0013452861 -0.034437977 -0.03798841 -0.030441932 0.025341112
0.079129145 0.050481822 -0.014950569 0.009611594 -0.00047785422 -0.007560047 0.07295636 0.04790743
0.048278406 0.037130933 0.016067956 -0.03688364 0.009374951 0.036228184 -0.11625255 -0.074188754
0.034439538 0.009589277 -0.0024022958 -0.0028647766 -0.020839453 -0.08778742 -0.09038548 0.038509786
0.018929621 -0.020683572 0.012765005 0.034676537 -0.16454956 -0.023637637 -0.025176268 -0.0029572344
0.006692576 -0.113323785 -0.018898983 -0.031612232 0.064898275 0.03497879 -0.021858584 -0.037771665
0.008767326 0.010921829 0.027671557 0.04125075 0.008359125 -0.05501949 0.047269233 -0.00055591366
00000000: e2a8 06bc a237 093d 1964 43bd 452f 9fbc
00000010: 7b47 42bb f636 bc3c e468 d73c 08a7 713d
00000020: c49d 533c f573 b83c 04b7 ef3b bee3 7f3d
00000030: 7c42 be3c f4e8 8d3d 2aae 59bb e449 893c
00000040: 64e1 0fbb 491c 043b 4495 85bd bd3d 1fbd
00000050: c9a2 c13d 506c 06bc 890b c5bc 9005 1e3d
00000060: 1653 19bd a146 febc 1db0 b7bd a0f5 533b
00000070: d635 5dbd d6aa 38be d26f 95bb 4682 493d
00000080: 1514 b4bd c7c1 40bd abb0 37bd 5d48 323d
00000090: d4ae 763b c1b1 333d df4d 153d 3dba 1ebc
000000a0: 3a7a 83bd 3c5a 1dbc b044 2abd 99fe 7d3c
000000b0: 1dec fe3d 9f51 36bd afe8 613b ecfd 6c3b
000000c0: 3d17 4a3d 36de 73bc e673 32bd 66f3 e239
000000d0: a84d 6fbd 91ae 4cbd ec03 0fbd f5b9 f8ba
000000e0: a8fd 04b9 335e cdbc 4103 45bd c58f 24bd
000000f0: 2d02 063c a016 81bd d8d7 603a 928f 3e3c
00000100: 1f3d 99bc 8264 3ebc 243c 563d a88a aa3d
00000110: 1e7d f63c 00ae 873d 2a35 ee3c 5000 f83c
00000120: fbd4 2bbd 1c61 533d 2604 0d3d a9a8 4fbc
00000130: 990f 563b 51e7 183d 75ed e53b f43d 28bc
00000140: 5f79 053d 594d f03c 6d3a c1bd e825 adbc
00000150: 353d 0fbc 7f92 b63c 23e7 943d fa40 863c
00000160: 1ae0 12bd d9a4 22be 9241 1dbe 3a15 b03d
00000170: 73a0 6b3c 940f 0e3d f0ce 36bd 9660 53bd
00000180: fa90 cfbd dc5d f2bb 2f21 273d bca7 013b
00000190: 690e 0abd cf76 99bd 4082 12bd e97e c8bd
000001a0: 532b dabc 09b0 933c 2cf3 04bd 2531 debd
000001b0: 1aaa e53c b74e b7bd cfad c8bd fb7c 45bd
000001c0: 9154 96bc 6f95 0cbd b03d 00bd 214f 553d
000001d0: ea17 883d abe7 41bc e99d 483d 0671 fa3c
000001e0: a388 bd3c ce47 38bd 0bd6 af3d 9eda bb3c
000001f0: 2434 673c bc4b c73d 35dd 833c 766f 6b3d
00000200: 672f 74bc 3416 953d 6aca 03bd 1099 603d
00000210: 3787 553d 3286 8c3c d024 9a3c 9159 7a3d
00000220: f54b 8b3c 5729 79bd 6995 8abc c2e5 96bc
00000230: f34a cf3c 030e 74bd 8262 1fbd 6e67 16be
00000240: 1767 c5bd d185 39bd 9c76 1cbd c5bc 35bc
00000250: 65f2 44bc 36c7 5cbd 4799 b4bc 54ca c23c
00000260: b6a0 82bc ee0e ce3c 1f80 13bd f1ee 08be
00000270: 05f6 96bd fb7c 123c 8b17 79bc 9725 90bd
00000280: 0f92 3abd 68c7 30bd 02ae a9bd 5d83 da3b
00000290: 8dd7 b13d 96c3 303d a2cb 8e3c 80a7 a23c
000002a0: 662b 24bd 6c42 f9bd ddd3 88bd 5c1b 593d
000002b0: b99d 7dbd 25ee 69bd 2c8e 30bd fe9c 773a
000002c0: 2a20 4f3b a5ff b1bd c757 52be 6a85 35bd
000002d0: 74d5 96bc c7ff 843c a5cc 243c 60a0 7a3d
000002e0: 9929 fa3c b30f 493b 4978 95bb 9a57 64bd
000002f0: d701 a03c 01f1 d83c fb65 77bc 683e 9b3c
00000300: 8791 1bbc e56a 3b3c 3fe3 713d 4de7 b93c
00000310: 71b9 bdbd e7d4 26bd 3f18 0cbd 7a24 c6bd
00000320: 90a6 123d ff84 1cbc 3901 953c 5054 b03a
00000330: d60e 0dbd bc99 1bbd 5c61 f9bc 2a98 cf3c
00000340: 760e a23d 07c6 4e3d 3bf3 74bc f279 1d3c
00000350: 8288 fab9 45ba f7bb 256a 953d 953a 443d
00000360: 94bf 453d 9b16 183d f2a0 833c 4d13 17bd
00000370: 6599 193c 0164 143d d115 eebd 46f0 97bd
00000380: 7910 0d3d 581c 1d3c d66f 1dbb fabe 3bbb
00000390: 80b7 aabc e4c9 b3bd 061c b9bd 70bc 1d3d
000003a0: 4b12 9b3c 9870 a9bc 5024 513c fc08 0e3d
000003b0: ae7f 28be b8a3 c1bc 763e cebc 29ce 41bb
000003c0: 664d db3b 4d16 e8bd 0ad2 9abc d47b 01bd
000003d0: 63e9 843d eb45 0f3d c610 b3bc 76b6 1abd
000003e0: d5a4 0f3c 79f1 323c 76af e23c 8cf6 283d
000003f0: b6f4 083c 1e5c 61bd 629d 413d bcba 11ba

fc.bias f4 [10]
0.01850965 0.023115393 -0.021000603 0.0003131808 -0.023438826 -0.0069647334 -0.0026854724 -0.0012477898
-0.036057472 0.006689369
00000000: 8da1 973c 7e5c bd3c 7509 acbc 6a32 a439
00000010: c802 c0bc 6b38 e4bb c0fe 2fbb e18c a3ba
00000020: 00b1 13bd 7f32 db3b
